cinnabar/model_after_data4.json.pkl (torch, 43641 bytes, 4 tensors)

conv1.bias f4 [16]
00000000: 6fb4 6fc1 19e2 12bf b3dc cbbf be86 3dc1
00000010: fd41 3dc1 2ed9 d6bd 7e8f c1bd 99ad 75c1
00000020: 9d3b f3bd 254a 72c1 4007 12c1 2ce9 f9c0
00000030: 9fde 41c0 adab d2bd f8eb 7fc1 d691 23c1
-14.981551 -0.5737625 -1.5926727 -11.845396 -11.82861 -0.104906425 -0.09451197 -15.354882
-0.11876605 -15.143102 -9.12677 -7.8097134 -3.0292127 -0.10286651 -15.99511 -10.2231045

conv1.lin.weight f4 [16, 648]
00000000: 0601 bdbd 350c b7bd 2033 bebc 4407 81bd
00000010: 03cb 713d ed77 413c d1f9 2e3d 5d68 6f3e
00000020: 45d7 7b41 edf1 8940 f7b5 1841 3f4f 5640
00000030: a545 a2bc 91b7 c1bd 6555 5f3d 518c 6ebd
00000040: 4788 b4bd 01c1 3fbd 939e bc3d 47c2 ae3c
00000050: 1ed0 373d d0f8 8fbd d086 7fbd 2e4d a63f
00000060: e786 6d41 1a28 8bbc 1073 c740 fe8b 483d
00000070: 466a ffbc 5f4a 333d 5ec4 6e3d 335d 943d
00000080: 9271 5a3c 7063 f0bc 4026 353d 654f 34c1
00000090: 655d 0bbd 268a a73d 55df 09bd 3fe6 c0bc
000000a0: 204b b43d 2e37 93bd 0a2f a3bc 4e33 373d
000000b0: 1d56 d1bc 8c11 323d 18a2 c23d 613b 09bd
000000c0: cf0d 153d f85b 103d 2fc9 b639 24a9 2fbd
000000d0: a4f9 743d 0f0a 8841 db22 683a 5aaa 2dbd
000000e0: a532 ea3c 40a4 04bd 1161 d440 90d1 a340
000000f0: 15f7 093c 2854 99bc af56 c541 0667 65bd
00000100: 5217 61bd 2427 9bbd 3b3e 8dbd b442 953d
00000110: 04c6 55bd 317f 6741 059a 093c a2b5 5fbd
00000120: bd9a b4bc dbe6 a93d 1c62 e6bc 1475 8ebd
00000130: fa46 6941 fe76 47bd 3bf8 c13c bc12 0142
00000140: b617 1b3c b614 b83d 4ac2 84bd acd7 e6bb
00000150: 6286 c440 02be 83bd e146 b33d cb36 1dbd
00000160: bea2 933d 362f dbba b9e1 f7bb c950 373c
00000170: 2330 833d b3d0 ffbc 9266 2e3b 39b1 9dbd
00000180: 9a62 b1bc 4e96 3341 16d0 4240 b97f 0341
00000190: a72c 083d 4991 9c3c 25d8 f4bc 3a55 9a3d
000001a0: 0b96 a03d 2a14 dc40 f1e0 1cbb e09f a5bd
000001b0: b08f 84bd 706f 0a3d b1cd 8dbd 2df7 f8bc
000001c0: 9938 bb3d ee7f a1bd d0fd 4f3d 3f25 a0bd
000001d0: 5ecd 43bd ffa8 aebd 1faa be3d b71d 7fbd
000001e0: 3070 14bd a910 933d 9631 5b3c 184e fbbc
000001f0: d2a1 3c3d b20f 263c ef4c a73d cfea 043b
00000200: 5d45 683c 753f 773c e983 2c3c e2b2 a63d
00000210: 05ea e9bc f4f0 4fbd 552a bcbd 71b2 2f3d
00000220: 28b6 623d 52d0 86bd 33de 0bbd c732 efbc
00000230: fe31 89bd 4a06 74bd 6652 943d 67df 83bd
00000240: bafd 9bbc c779 ad3d 6888 893d d579 c03d
00000250: abf4 953c 2159 7b3d c39f f93c 82d4 f73c
00000260: b1a9 8cbd 1217 9e3d c873 10bd 577a 973c
00000270: 5a06 a3bb 2420 0b3d d66d a43d 8e11 91bc
00000280: ccb5 ba3d 3aff f2bb 225c d440 d2b9 31bd
00000290: cf22 f23c 55a1 bdbd d077 ab3d f1ae 6e3d
000002a0: 4068 34bd e182 aa3d a5d0 893d 5fdd 8cbc
000002b0: a853 9cbd 9484 cdbb 5bbb b9bd 9ed9 a0bc
000002c0: c908 36bd 5b5f 81bd 12b9 bdbb 69e8 bc3d
000002d0: 1fdc aa3d d6d8 48b9 4098 0b3c 2574 bfbd
000002e0: 185a a93d 8602 f73c a7e0 7ebd 53f4 9e3d
000002f0: 2641 c0bd 297c 8abd 5dee 823d db37 57bd
00000300: f45c a1bd 8fef 9bbd e7c4 49bd 5c12 60bd
00000310: 8c35 2cbd 2c3f ae3d 1884 b53d b087 923d
00000320: 199e bc3d 3325 863d b98e 2fbd 48a0 85bd
00000330: 6c42 f83c cf20 a23d 9529 94bc e993 bf3d
00000340: 2969 903d 9d7e f239 2321 193d c5be 6e3d
00000350: deba 63bd ff29 b0bd 3057 19bd 131f ae3d
00000360: ee8d 283d 77b2 1b3a 8cbd 6ebd 9238 983d
00000370: 0b19 203d bf13 49bd 03fa 9d3d 0c32 1c3d
00000380: 90f7 903d a6d3 783d 0d20 0c3d 7cd6 933d
00000390: 1e26 643c fda7 4dbc 9f7b 75bd f7f1 80bc
000003a0: fe4f 913d e6f6 523d 3161 003b a682 a93c
000003b0: 9b98 a5bd 79da 823d 6eba 41bd f228 153d
000003c0: f31d 9fbd 231a 03bd c6a5 093d f773 96bd
000003d0: f3d1 893d 3b94 2bbd 68b9 a93d 9112 70bd
000003e0: 2265 843c 8298 17bd a2ed c1bc 7dc7 a33d
000003f0: 3d35 343c 581c 6a3d 94b1 9cbc 9aa8 4cbd
-0.09228711 -0.08937875 -0.023217738 -0.06300214 0.059031498 0.011808378 0.042718712 0.23379655
15.740056 4.310782 9.544425 3.3485868 -0.0198086 -0.09458841 0.054524798 -0.058239285
-0.08815055 -0.046814922 0.09209933 0.021332873 0.04487621 -0.07029879 -0.062384427 1.2992303
14.845435 -0.016986895 6.2327957 0.048961632 -0.031178605 0.043772098 0.05829274 0.07244339
0.013332741 -0.02934429 0.04422593 -11.269383 -0.034024615 0.081806466 -0.03366025 -0.02354729
0.088033915 -0.07188259 -0.01991989 0.044726662 -0.025553757 0.043473765 0.09503573 -0.033503894
0.036390122 0.03524396 0.0003486364 -0.042885914 0.05980839 17.004911 0.00088552915 -0.042398788
0.028588602 -0.032383204 6.636849 5.1193314 0.008420725 -0.018716887 24.667326 -0.056006454
-0.05495388 -0.07575825 -0.06896635 0.07288113 -0.052190796 14.468553 0.0083985375 -0.054616578
-0.022046441 0.08295985 -0.028122954 -0.06955925 14.579828 -0.048697464 0.023677936 32.268295
0.009466102 0.08988325 -0.0648237 -0.007044753 6.141404 -0.064327255 0.087537535 -0.038382333
0.07208775 -0.0016722444 -0.00756475 0.011188694 0.06405666 -0.031227445 0.002661143 -0.07699818
-0.021653462 11.2241955 3.0439506 8.218682 0.03324571 0.019112246 -0.029888222 0.07535787
0.078411184 6.8774614 -0.0023937786 -0.08087134 -0.06472719 0.03379768 -0.06923998 -0.0303913
0.091416545 -0.07885729 0.050779164 -0.07819604 -0.047803275 -0.08528327 0.09309792 -0.062284198
-0.036239803 0.07180912 0.013378521 -0.030676886 0.04605276 0.010135578 0.08168971 0.0020281558
0.014176694 0.015090813 0.010529497 0.08139588 -0.028553972 -0.0507669 -0.09187762 0.042894784
0.0553495 -0.06582703 -0.034147453 -0.029199017 -0.066989884 -0.05957631 0.07242279 -0.06439095
-0.019041885 0.08470493 0.067154706 0.093982376 0.018305143 0.061364297 0.030471688 0.030252699
-0.068683036 0.07719244 -0.035266668 0.018490953 -0.0049751224 0.0339662 0.08028762 -0.017708566
0.09116706 -0.0074156793 6.6362467 -0.043390103 0.029557614 -0.09259287 0.08372462 0.058272306
-0.044044733 0.083257444 0.06729249 -0.017195402 -0.07633144 -0.006271908 -0.09068938 -0.019635018
-0.044441972 -0.06317016 -0.0057898844 0.09224016 0.08342766 -0.00019154264 0.008520186 -0.09348325
0.08269137 0.03015257 -0.062225964 0.07761445 -0.09387426 -0.06761963 0.063931204 -0.052543502
-0.078790575 -0.076140516 -0.049260046 -0.05470501 -0.042043254 0.08508143 0.088630855 0.071547866
0.09209842 0.06550064 -0.04286072 -0.06524712 0.03030511 0.07916414 -0.018086234 0.093543835
0.07051308 0.0004625217 0.037385117 0.0582874 -0.055598132 -0.0860176 -0.037436664 0.08502021
0.04115098 0.0005939374 -0.058286235 0.07432665 0.039086383 -0.049091097 0.077137016 0.038133666
0.07078469 0.06074872 0.034210254 0.07218644 0.0139251035 -0.012552259 -0.059932347 -0.015740378
0.070953354 0.051504992 0.001958918 0.02069218 -0.08085748 0.063893266 -0.047296934 0.036416
-0.07769384 -0.032007348 0.03360536 -0.07346337 0.06729498 -0.04188941 0.082873166 -0.058611456
0.016161505 -0.037010677 -0.023672882 0.07997034 0.010999021 0.057155937 -0.019127645 -0.04996548

conv2.bias f4 [2]
00000000: 5c00 9e3f d00f 9ebf
1.234386 -1.2348576

conv2.lin.weight f4 [2, 16]
00000000: 8039 073e c82e 1abf ceaa 34bf c7fa 843e
00000010: 268b 523e 47bf 023d 6b6d 89bd 6081 d93e
00000020: a381 7c3e 14a1 22bd b90f 6abd 55b6 89bf
00000030: 6716 f73e 31b0 f2bd 8421 b03d 2af2 233e
00000040: 8c07 803c 15bc 4a3d 60d9 113f ad9a 923d
00000050: 25be 4d3c f950 68be 9865 293d 8640 d83e
00000060: c0c2 8f3e bfc2 e3bd b5b6 31be 03b7 2c3f
00000070: 4101 afbc 32b2 ae3e 9452 0dbc 83ac 00be
0.13205528 -0.6022763 -0.7057313 0.25972578 0.20560893 0.031920698 -0.06710323 0.42481518
0.24658827 -0.039704397 -0.0571439 -1.0758768 0.4825928 -0.11850012 0.086001426 0.16010347
0.015628599 0.049495775 0.5697231 0.07158408 0.012557541 -0.22687139 0.041356653 0.42236727
0.2807827 -0.11121129 -0.17354853 0.67466754 -0.021362903 0.34120327 -0.008625645 -0.12565808
