reann_gcn/best_model_data4.json.pkl (torch, 43231 bytes, 4 tensors)

gcn1.linear.weight f4 [16, 648]
0.004735264 0.035505157 0.000939088 -0.017883124 5.5530818e-05 0.009954192 0.018410943 0.037741385
-0.038129516 0.025547195 -0.022587603 0.025095996 0.008067896 -0.037527002 -0.016025627 -0.012290026
-0.0009415653 -0.027810533 0.032857608 -0.031063039 0.028799795 0.008541921 -0.014143031 -0.012761486
-0.009811773 0.033821184 0.01032823 -0.011518407 0.022079816 0.003917433 0.010269057 0.0230777
-0.028338253 0.03096908 0.018284189 0.010293034 -0.024926653 -0.031376753 0.038715575 -0.033481248
-0.0073457137 -0.03487295 0.014014685 0.008847088 -0.015586729 -0.029598577 -0.0067523094 0.016299766
-0.01485639 0.013067612 0.03476224 0.011237142 -0.0011891031 0.039219923 -0.017367892 0.03773887
-0.024805978 0.0075041577 0.02517789 -0.0105135925 0.00808977 -0.0007566343 0.021900637 0.001964947
0.034810536 -0.0046999496 -0.015824994 -0.010416927 0.00292649 -0.015262063 -0.015059903 0.022201044
-0.01984174 0.016732646 0.035574097 -0.001982218 -0.0017161636 0.036687385 -0.01407813 -0.013701375
0.026556566 0.030137489 -0.021220949 -0.00027978016 0.008820751 -0.024643674 0.019881452 0.00922528
0.029578594 -0.029084329 0.0053112525 -0.029325431 -0.035376426 -0.003204542 0.024372831 -0.03439605
0.026570054 -0.032361377 0.027235089 0.015634224 0.030308811 -0.014798845 -0.021158617 0.03301108
-0.004295972 -0.028868508 0.0067616194 -0.02008022 -0.007251937 -0.0013275696 -0.038954142 -0.014630357
0.006604402 0.0372913 -0.030953335 0.033346955 -0.0065609813 -0.026977131 0.002298886 0.0023141103
-0.022152403 -0.012843798 -0.03541937 0.024223747 0.017003136 -0.029079529 0.027696835 0.032117315
0.009300316 0.019317137 -0.016125469 0.033951294 0.02457833 -0.018553048 -0.021013793 -0.015463577
-0.02936466 0.033679456 0.032718685 -0.03639366 -0.009445343 -0.006451329 -0.007896137 -0.011667251
0.024973586 -0.030060917 0.003645904 -0.022152483 -0.015152064 0.017917426 0.023151062 0.0030229501
-0.004947108 -0.008397535 0.03482391 0.00076713355 0.038974218 -0.018115278 -0.0055081155 -0.009182164
-0.011104388 0.03755713 0.031492192 0.03423834 -0.0056089074 0.027117377 0.024921292 0.010297515
-0.0001383166 -0.021181349 -0.020106014 0.023474002 0.02466553 -0.028393503 -0.031906098 0.0027501897
0.0072695636 0.032217775 -0.035399046 0.018478045 0.014571656 0.023100328 0.023086762 -0.016667604
-0.026794739 -0.03341288 -0.030836185 -0.026946194 0.00879106 -0.023852186 -0.007141929 0.028414994
0.021355556 -0.0069888984 -0.024465 -0.0070103183 0.021865655 0.03175709 0.033198714 -0.03404876
0.022839129 0.029603887 0.030638324 0.024178276 0.03719098 -0.0105647445 0.012822706 0.0012200997
0.021151986 0.029036032 -0.00035655298 -0.0352384 -0.016353216 -0.017114969 0.014887364 0.03786433
-0.012051245 0.007068523 0.0032784957 0.0039648945 -0.031375356 0.036343407 0.008572051 -0.020076483
-0.009815851 -0.0012847297 -0.024474071 0.002094333 0.009457323 -0.024755485 -0.012291501 -0.023587298
0.03276164 0.030027285 -0.033811416 -0.024357432 0.036573973 -0.0052261436 -0.023438996 -0.036468007
-0.0049251076 0.034688234 -0.012829834 0.027458144 -0.02047706 -0.035391092 0.03490761 0.0362149
-0.03858188 0.02889766 0.0013820608 0.013609443 -0.016390296 -0.0050832895 -0.021480292 0.037921138
00000000: 462a 9b3b db6d 113d 212d 763a a17f 92bc
00000010: c3e9 6838 e816 233c 8cd2 963c b696 1a3d
00000020: b22d 1cbd 5a48 d13c a309 b9bc 1e96 cd3c
00000030: 352f 043c eab5 19bd 2d48 83bc 1b5c 49bc
00000040: 61d3 76ba ead2 e3bc b395 063d ea77 febc
00000050: 8ced eb3c 6af3 0b3c 2cb8 67bc 8d15 51bc
00000060: 8fc1 20bc 1588 0a3d bd37 293c b3b7 3cbc
00000070: bbe0 b43c cf5d 803b 8c3f 283c 720d bd3c
00000080: a025 e8bc deb2 fd3c b9c8 953c 1da4 283c
00000090: fb32 ccbc e984 00bd 3994 1e3d a223 09bd
000000a0: 50b4 f0bb f0d6 0ebd d99d 653c 60f3 103c
000000b0: 7b5f 7fbc b778 f2bc 7a42 ddbb 1687 853c
000000c0: 3768 73bc 8a19 563c da62 0e3d fd1b 383c
000000d0: aedb 9bba 12a5 203d 1c47 8ebc 1394 1a3d
000000e0: e835 cbbc 70e5 f53b dd41 ce3c 3441 2cbc
000000f0: f48a 043c de58 46ba f768 b33c 57c6 003b
00000100: 7e95 0e3d 0902 9abb 6ba3 81bc c2ab 2abc
00000110: 5bca 3f3b bb0d 7abc d0bd 76bc f7de b53c
00000120: 258b a2bc e712 893c 25b6 113d 19e8 01bb
00000130: e5f0 e0ba 8345 163d f5a7 66bc bb7b 60bc
00000140: 288d d93c e5e2 f63c 8ed7 adbc 75af 92b9
00000150: e984 103c 88e1 c9bc 6dde a23c a125 173c
00000160: cf4e f23c 4242 eebc 040a ae3b e33b f0bc
00000170: dfe6 10bd 4b03 52bb 88a9 c73c dfe2 0cbd
00000180: 71a9 d93c 5d8d 04bd 1f1c df3c 5813 803c
00000190: 2f4a f83c db76 72bc d654 adbc a036 073d
000001a0: 3ac5 8cbb a67d ecbc 9390 dd3b 467f a4bc
000001b0: a8a1 edbb d801 aeba 618e 1fbd 2ab4 6fbc
000001c0: bd69 d83b c3be 183d d991 fdbc d196 083d
000001d0: 80fd d6bb 25ff dcbc e8a8 163b 54a8 173b
000001e0: f578 b5bc cb6e 52bc e713 11bd e170 c63c
000001f0: 294a 8b3c 3138 eebc 79e4 e23c 728d 033d
00000200: 5a60 183c f93e 9e3c 8f19 84bc 8310 0b3d
00000210: 7e58 c93c 90fc 97bc 1e25 acbc f15a 7dbc
00000220: 288e f0bc 78f3 093d 0704 063d 8511 15bd
00000230: a4c0 1abc ac65 d3bb cd5e 01bc ff27 3fbc
00000240: 6895 cc3c 5042 f6bc 1ef0 6e3b 2079 b5bc
00000250: 5d40 78bc 91c7 923c 4ca7 bd3c b01c 463b
00000260: 5a1b a2bb d195 09bc 84a3 0e3d 7619 493a
00000270: 6ea3 1f3d 7e66 94bc 6c7d b4bb ca70 16bc
00000280: 2eef 35bc 81d5 193d f5fd 003d 803d 0c3d
00000290: edca b7bb 4325 de3c bd27 cc3c e9b6 283c
000002a0: 1409 11b9 8284 adbc 5eb5 a4bc 8d4c c03c
000002b0: 5e0f ca3c 7e99 e8bc f8af 02bd 873c 343b
000002c0: 8535 ee3b c9f6 033d 97fe 10bd 455f 973c
000002d0: f4bd 6e3c e63c bd3c 7320 bd3c 808a 88bc
000002e0: a480 dbbc f2db 08bd 2b9c fcbc 44be dcbc
000002f0: 6108 103c a965 c3bc d806 eabb 90c6 e83c
00000300: d9f1 ae3c 2103 e5bb d36a c8bc d0b6 e5bb
00000310: 9a1f b33c b913 023d 60fb 073d b676 0bbd
00000320: 2019 bb3c da83 f23c 39fd fa3c 8511 c63c
00000330: 9255 183d c017 2dbc 5416 523c c1eb 9f3a
00000340: ee46 ad3c f9dc ed3c bbef bab9 2456 10bd
00000350: 2ef7 85bc b134 8cbc 21ea 733c a117 1b3d
00000360: 9672 45bc 129f e73b 08dc 563b f2eb 813b
00000370: 7283 00bd d3dc 143d ca71 0c3c 7077 a4bc
00000380: aad2 20bc 6064 a8ba d97d c8bc 1441 093b
00000390: e3f2 1a3c 04cc cabc 4b62 49bc 263a c1bc
000003a0: 1231 063d c8fb f53c d77d 0abd 3d89 c7bc
000003b0: 97ce 153d 1240 abbb 2303 c0bc 7a5f 15bd
000003c0: cc62 a1bb 4015 0e3d 3934 52bc e7ef e03c
000003d0: 82bf a7bc 40f6 10bd 48fb 0e3d 1356 143d
000003e0: 0908 1ebd c9ba ec3c 4426 b53a 24fa 5e3c
000003f0: f144 86bc b991 a6bb 70f7 afbc 3253 1b3d

gcn1.linear.bias f4 [16]
-0.0071374145 0.0041386285 -0.020729005 0.028259069 0.0013315408 -0.019348003 -0.029049946 0.033870626
-0.025920304 0.0104454085 0.0014155722 -0.0017374243 0.035531 -0.03386232 0.025404468 0.008021903
00000000: f9e0 e9bb 559d 873b e0cf a9bc 907f e73c
00000010: 1887 ae3a b47f 9ebc 27fa edbc edbb 0a3d
00000020: d156 d4bc 3823 2b3c b98a b93a 49ba e3ba
00000030: f488 113d 37b3 0abd 081d d03c 4d6e 033c

gcn2.linear.weight f4 [2, 16]
0.056419164 -0.23070192 -0.023802906 -0.083714336 -0.0456087 -0.10679233 0.106659025 0.1095556
-0.05111587 -0.23306653 0.23220268 -0.101506025 0.061438143 0.09373695 -0.19395122 -0.0665071
-0.12531745 -0.10086781 -0.088867396 -0.24714458 -0.109989256 0.048779875 -0.19571689 -0.13226092
0.012518227 -0.24255648 -0.023232609 0.09767264 -0.14484027 -0.042230874 -0.15270233 0.23957872
00000000: c817 673d 203d 6cbe 50fe c2bc 6c72 abbd
00000010: 30d0 3abd f0b5 dabd 0c70 da3d b05e e03d
00000020: e05e 51bd fea8 6ebe 8ac6 6d3e 64e2 cfbd
00000030: 90a6 7b3d 28f9 bf3d 269b 46be e034 88bd
00000040: 3853 00be c893 cebd 1c00 b6bd 7813 7dbe
00000050: 0c42 e1bd 68cd 473d 026a 48be 686f 07be
00000060: 4019 4d3c ba60 78be 5052 bebc 9808 c83d
00000070: 0251 14be 48fa 2cbd 005e 1cbe 2054 753e

gcn2.linear.bias f4 [2]
0.029848961 0.029857503
00000000: cf85 f43c b997 f43c
